output/model_20210719.pth (torch, 7341 bytes, 13 tensors)

weight f4 [8, 3]
0.08448605 6.1825185 1.2363255 0.18720216 3.7912567 -0.12963197 -0.054908033 0.13137469
-0.45935753 0.10466674 2.4523444 -1.481767 0.1646382 -3.8926563 0.6200917 -0.52073556
0.29525313 -0.100271344 0.3520053 1.014004 4.915785 -0.10393141 0.053841304 -0.055641297
00000000: 0607 ad3d 31d7 c540 ea3f 9e3f ecb1 3f3e
00000010: f3a3 7240 3ebe 04be 3fe7 60bd 1687 063e
00000020: e930 ebbe 845b d63d 36f3 1c40 8baa bdbf
00000030: eb96 283e 4821 79c0 54be 1e3f ed4e 05bf
00000040: 6b2b 973e 105b cdbd 0a3a b43e e2ca 813f
00000050: 1c4e 9d40 fed9 d4bd b388 5c3d 21e8 63bd

bias f4 [8]
-0.3174531 0.0644496 0.54524267 0.56001383 0.1189897 0.5464482 0.261632 -0.061477426
00000000: 3689 a2be 27fe 833d 0695 0b3f 115d 0f3f
00000010: dfb0 f33d 07e4 0b3f a1f4 853e c1cf 7bbd

weight f4 [8, 8]
-0.11513048 -0.03992276 -0.3429413 0.12049257 0.24375157 -0.032282125 -0.23177698 0.15756907
0.5167949 0.44542676 -0.11556691 0.58095056 -0.6494026 0.16730815 0.22277686 0.06902798
-0.22375332 -0.1322229 -0.30351168 0.077428006 -0.12087356 0.3298749 0.017751055 -0.034109782
0.1952328 -0.24990438 0.15036373 0.3198468 0.016906366 0.27210915 -0.27116835 0.28280976
-0.116453044 -0.25907654 0.10731081 -0.1635696 -0.22438332 0.06535863 -0.07938413 -0.16291565
-0.4231043 0.19043255 -0.3268251 0.84898734 -0.08739527 -0.21547951 -0.2619614 -0.16384596
0.30446285 0.011210411 -0.04970694 -0.4992969 -0.34473792 -0.11535301 0.33360466 0.0455465
-0.29996565 0.0012032811 0.25053325 -0.57427883 0.4260356 -0.19876002 0.3517369 -0.07795991
00000000: 87c9 ebbd 0c86 23bd 0196 afbe cfc4 f63d
00000010: 039a 793e 433a 04bd f256 6dbe c959 213e
00000020: ac4c 043f fa0e e43e 58ae ecbd 2db9 143f
00000030: 403f 26bf d452 2b3e 9e1f 643e 8b5e 8d3d
00000040: 971f 65be 7165 07be e265 9bbe 9392 9e3d
00000050: 8f8c f7bd 5de5 a83e a96a 913c b3b6 0bbd
00000060: 1beb 473e efe6 7fbe f3f8 193e f6c2 a33e
00000070: 387f 8a3c e451 8b3e 94d6 8abe 71cc 903e
00000080: ef7e eebd aea5 84be c5c5 db3d ca7e 27be
00000090: bec4 65be bfda 853d 2694 a2bd 5cd3 26be
000000a0: 20a1 d8be c000 433e 9f55 a7be 3c57 593f
000000b0: 4bfc b2bd a9a6 5cbe ce1f 86be 3cc7 27be
000000c0: 8ee2 9b3e dfab 373c 8199 4bbd d8a3 ffbe
000000d0: 7d81 b0be 333e ecbd 3bce aa3e f78e 3a3d
000000e0: 1995 99be 6ab7 9d3a e545 803e f003 13bf
000000f0: 5721 da3e bf87 4bbe dc16 b43e 72a9 9fbd

bias f4 [8]
-0.21632695 -0.28227472 0.26315218 0.028568018 0.13098617 0.7278884 -0.56710285 -0.053893447
00000000: d084 5dbe 5086 90be e2bb 863e 7a07 ea3c
00000010: 3d21 063e e556 3a3f a72d 11bf 60bf 5cbd

weight f4 [8, 8]
0.060571976 0.20328934 -0.10750325 0.051728174 -0.05616763 0.3558083 0.48555103 0.2298673
0.14551663 0.4223391 -0.124736816 -0.1983724 0.11516584 -0.3784813 0.29869336 -0.68176496
-0.34104598 0.317709 0.023191117 -0.21465069 0.090358034 1.8774364 0.056531917 -0.59871125
-0.15215783 0.3038584 -0.009731086 0.20244108 0.22360446 -0.42086992 0.245001 -0.108199604
-0.047778424 0.18356085 -0.13433065 -0.047919575 0.14426525 -0.2901138 -0.4029856 -0.20319691
-0.13814299 0.29268527 -0.012375406 0.20213418 0.058652945 0.8080095 0.58358073 -0.63874614
0.1797341 0.5556023 0.28516287 0.24235028 -0.31412122 0.9223824 -0.32923302 -0.4405478
0.34333715 -0.3306502 0.22201021 -0.11775176 -0.2728676 -0.25900942 0.350399 -0.14903572
00000000: 521a 783d 152b 503e aa2a dcbd ece0 533d
00000010: 0710 66bd 812c b63e 259a f83e 5562 6b3e
00000020: 5002 153e d53c d83e 0476 ffbd 2222 4bbe
00000030: 11dc eb3d 4dc8 c1be 56ee 983e 2688 2ebf
00000040: 949d aebe c1aa a23e 4cfb bd3c 64cd 5bbe
00000050: a20d b93d d64f f03f 038e 673d 2445 19bf
00000060: 43cf 1bbe 5493 9b3e 226f 1fbc b74c 4f3e
00000070: 91f8 643e 437c d7be 8be1 7a3e c197 ddbd
00000080: 4fb3 43bd 60f7 3b3e f98d 09be 5147 44bd
00000090: 45ba 133e cc89 94be 2154 cebe da12 50be
000000a0: 5b75 0dbe d8da 953e 37c2 4abc 43fc 4e3e
000000b0: 123e 703d b6d9 4e3f 8c65 153f de84 23bf
000000c0: 370c 383e f43b 0e3f de00 923e ac2a 783e
000000d0: 7fd4 a0be 4121 6c3f 3b91 a8be 7b8f e1be
000000e0: e3c9 af3e fc4a a9be a556 633e d627 f1bd
000000f0: 4db5 8bbe e29c 84be 7f67 b33e d29c 18be

bias f4 [8]
-0.8896754 0.31418103 0.8221221 0.21685725 -0.2824607 0.048927676 -0.84940886 0.2502331
00000000: c4c1 63bf 56dc a03e 9876 523f d40f 5e3e
00000010: b09e 90be 6368 483d dc72 59bf 8e1e 803e

weight f4 [8, 8]
0.39621004 -0.5666839 -0.05981973 0.16318569 -0.09691341 -0.22899877 -0.545031 -0.16848
0.31106046 -0.5883067 -1.0260315 -0.06421268 -0.22490577 1.2070936 -0.23608261 -0.23001069
0.65019476 0.18918483 -1.2067579 0.051367603 -0.2716547 2.7750592 0.36031488 -0.29195994
0.18920842 0.9406691 0.7347899 0.6920821 -0.23978603 -0.01594447 0.84771454 -0.22014053
0.035367765 -1.6298188 0.01915525 -0.15531753 -0.31376684 -0.396103 0.39091694 -0.039721634
-0.58926624 0.6344056 0.6446033 0.42358977 -0.07496025 0.08884606 0.5569819 -0.061471514
-0.10065097 -0.015905252 0.25851098 -0.21915513 -0.12545258 -0.10084118 -0.05127535 -0.1101794
-0.61677486 -0.30455273 0.2607483 0.38593146 0.20498912 0.40808195 -0.36361852 0.29098493
00000000: 0bdc ca3e 3212 11bf 8905 75bd 261a 273e
00000010: 8a7a c6bd a77e 6abe 2787 0bbf 0586 2cbe
00000020: 5143 9f3e 459b 16bf 0055 83bf f081 83bd
00000030: b34d 66be 0b82 9a3f a4bf 71be ec87 6bbe
00000040: 2a73 263f abb9 413e 0b77 9abf d666 523d
00000050: 5316 8bbe 929a 3140 317b b83e c67b 95be
00000060: dabf 413e b1cf 703f 311b 3c3f 4b2c 313f
00000070: 788a 75be fa9d 82bc d203 593f 856c 61be
00000080: cadd 103d e79d d0bf 79eb 9c3c 8f0b 1fbe
00000090: 0ca6 a0be 03ce cabe 4426 c83e 27b3 22bd
000000a0: 27da 16bf 6868 223f b904 253f c2e0 d83e
000000b0: c284 99bd ecf4 b53d 5e96 0e3f 8ec9 7bbd
000000c0: 1922 cebd bb4b 82bc 8d5b 843e 346a 60be
000000d0: a476 00be d285 cebd 1a06 52bd bda5 e1bd
000000e0: f5e4 1dbf 56ee 9bbe cd80 853e cf98 c53e
000000f0: abe8 513e 1ef0 d03e 352c babe fafb 943e

bias f4 [8]
-0.2149115 0.2330574 -0.9874876 -0.6581777 0.77926546 0.34934732 -0.3290903 1.8242413
00000000: c311 5cbe 99a6 6e3e fdcb 7cbf 557e 28bf
00000010: f17d 473f a7dd b23e 867e a8be bd80 e93f

weight f4 [8, 8]
-0.7820637 0.73429453 -0.64083445 0.70358884 -2.4410672 0.7578826 -0.29370058 0.83408874
0.692491 -2.442567 0.9073338 0.19380446 -1.9979142 -0.63024294 0.26657724 -7.599255
1.2055401 -2.0615945 -0.43203673 0.9363357 2.9716563 -0.37137783 0.088029295 -2.8963351
-0.55926615 0.6791757 -0.7476504 0.7768428 -2.104287 0.77033144 -0.12778431 0.44099677
-0.08801748 0.407681 -1.107832 0.6687873 0.1395124 0.56323045 -0.31887463 -0.23667426
-0.6068128 0.60353214 -0.31167486 0.559082 -2.3328419 0.70601505 0.096364595 0.65618926
0.862208 -1.888279 0.72276616 0.21098503 -0.6710682 -0.51194143 -0.046178658 -5.55951
-0.67716104 1.5008564 -0.40176085 0.8775765 -0.037154444 0.33258665 -0.1344101 0.5219785
00000000: 5435 48bf bafa 3b3f ba0d 24bf 661e 343f
00000010: 723a 1cc0 9804 423f ec5f 96be d786 553f
00000020: 1747 313f 0553 1cc0 0747 683f ad74 463e
00000030: a7bb ffbf 9a57 21bf d07c 883e 192d f3c0
00000040: 234f 9a3f 2af1 03c0 eb33 ddbe b2b3 6f3f
00000050: 9e2f 3e40 3c25 bebe b448 b43d 8e5d 39c0
00000060: 112c 0fbf 75de 2d3f 0466 3fbf 2bdf 463f
00000070: a3ac 06c0 7134 453f e4d9 02be 54ca e13e
00000080: 8242 b4bd 90bb d03e 70cd 8dbf a535 2b3f
00000090: 57dc 0e3e df2f 103f 8943 a3be bd5a 72be
000000a0: 1558 1bbf 1581 1a3f d993 9fbe ff1f 0f3f
000000b0: 484d 15c0 67bd 343f cd5a c53d 05fc 273f
000000c0: aab9 5c3f 20b3 f1bf 3407 393f 760c 583e
000000d0: 20cb 2bbf 980e 03bf d525 3dbd 82e7 b1c0
000000e0: 6d5a 2dbf 101c c03f 99b3 cdbe daa8 603f
000000f0: 422f 18bd cc48 aa3e cda2 09be 62a0 053f

bias f4 [8]
0.22738126 -1.3090687 0.2188438 0.119410925 -0.765664 0.34370962 -1.506953 -0.9710666
00000000: a2d6 683e 908f a7bf 9718 603e b78d f43d
00000010: 8e02 44bf b5fa af3e d6e3 c0bf d297 78bf

weight f4 [8, 8]
-0.30002207 0.09552122 0.088660456 0.31306872 0.17465864 -0.282403 -0.08186608 -0.28584102
0.7953205 -0.75264794 1.1092974 0.6885003 1.1431835 0.8971691 -2.3203602 0.84763074
0.05707918 -0.20032704 -0.024408799 -0.09999407 0.09349684 -0.08169155 -0.3287782 -0.089169666
0.5284587 -1.0958127 0.64340514 0.5204208 1.5139638 0.8220995 -1.9047391 1.2101238
-0.4496262 1.253441 -0.059741974 -0.7475478 -0.9077929 -0.21138866 1.0877512 -0.26414168
-0.33647308 0.90629804 0.67988676 -0.17129965 -1.4018209 -0.4912154 1.9720285 0.73764586
-0.27191034 -0.082879834 -0.08372218 -0.41681746 0.26334703 -0.040683843 -0.34357578 -0.19836354
-0.24145448 0.20376581 -0.29483312 -0.16761279 0.15441644 0.10811185 -0.18322057 -0.30463594
00000000: 7e9c 99be a1a0 c33d 9d93 b53d 8b4a a03e
00000010: b7d9 323e 2097 90be 67a9 a7bd c159 92be
00000020: 209a 4b3f 89ad 40bf 75fd 8d3f 8e41 303f
00000030: d653 923f e0ac 653f c880 14c0 54fe 583f
00000040: dccb 693d 8822 4dbe f6f4 c7bc b1c9 ccbd
00000050: 457b bf3d e64d a7bd 9e55 a8be 969e b6bd
00000060: 1249 073f 9743 8cbf 33b6 243f 4c3a 053f
00000070: 91c9 c13f 1d75 523f 7ece f3bf 56e5 9a3f
00000080: 6835 e6be c170 a03f 00b4 74bd 4b5f 3fbf
00000090: 1e65 68bf 4576 58be 6e3b 8b3f 943d 87be
000000a0: 3346 acbe 2603 683f 0f0d 2e3f 2d69 2fbe
000000b0: de6e b3bf 9680 fbbe 6e6b fc3f 5cd6 3c3f
000000c0: d537 8bbe e7bc a9bd 8976 abbd 1969 d5be
000000d0: 6cd5 863e 1aa4 26bd 2ae9 afbe d01f 4bbe
000000e0: d83f 77be fca7 503e 5ef4 96be b0a2 2bbe
000000f0: 581f 1e3e bf69 dd3d 2c9e 3bbe 3ef9 9bbe

bias f4 [8]
-0.34105745 0.3043903 -0.28789517 0.3208661 0.36544454 -0.33262888 0.18462928 -0.21027298
00000000: 159f aebe 0cd9 9b3e ff66 93be 9048 a43e
00000010: 8c1b bb3e 554e aabe 750f 3d3e cd51 57be

weight f4 [1, 8]
-0.10537637 0.961056 0.2724845 1.0145792 3.5775766 -1.7594818 -0.28563195 0.33062646
00000000: 91cf d7bd c407 763f 1783 8b3e bbdd 813f
00000010: 04f7 6440 b336 e1bf 5a3e 92be df47 a93e
