output/model_20221121.pth (torch, 7341 bytes, 13 tensors)

weight f4 [8, 3]
0.49116805 2.8640282 -1.2920061 -0.032279648 0.19707635 0.43802133 -0.32505617 0.3956222
-0.44052446 0.48428464 3.0862367 -0.00081259734 0.47402513 -1.6319797 0.3016353 -0.43501642
-0.17689086 0.5019725 0.29586813 -2.898368 0.9342591 -0.0032708638 -0.3103469 -0.4865827
00000000: 617a fb3e 3d4c 3740 7560 a5bf aa37 04bd
00000010: 62ce 493e 5544 e03e c36d a6be fe8e ca3e
00000020: 6c8c e1be 28f4 f73e e784 4540 7c04 55ba
00000030: 6cb3 f23e b6e4 d0bf f16f 9a3e 79ba debe
00000040: e122 35be 4581 003f 077c 973e dc7e 39c0
00000050: 9b2b 6f3f fd5b 56bb cae5 9ebe 5e21 f9be

bias f4 [8]
0.55138755 -0.32175803 -0.17913589 0.42927852 0.13359797 0.44820318 -0.17011194 -0.4261805
00000000: bc27 0d3f 78bd a4be 666f 37be 65ca db3e
00000010: e8cd 083e e37a e53e d331 2ebe 5534 dabe

weight f4 [8, 8]
-0.05367211 0.024522595 0.2516537 0.27352592 -0.2571831 -0.01859696 -0.11244759 -0.34741765
0.30556753 -0.14348014 0.10441932 -0.018773561 0.10756242 0.14842771 0.114368506 0.08742558
-0.102626055 -0.32431197 0.25057814 0.00348546 -0.33402047 0.13737684 0.32582122 0.13481314
0.5221196 -0.21713555 -0.073353514 0.5184349 0.09868006 -0.25947508 0.17566575 -0.048491
-0.1408935 0.13806182 -0.30024332 -0.18148866 -0.22925319 -0.24858662 0.012896303 0.21321799
0.027975982 -0.030356394 -0.29692915 0.16349673 -0.10906534 -0.12737048 -0.2789481 0.20999089
0.037501268 0.13767137 -0.08984119 0.33227777 -0.008774115 0.25825974 0.648647 -0.34884626
0.39596093 -0.15036108 -0.10285487 0.2558638 -0.3574731 0.0037389733 -0.57374483 -0.12663977
00000000: 49d7 5bbd 9ce3 c83c c1d8 803e 970b 8c3e
00000010: 81ad 83be a758 98bc ec4a e6bd bae0 b1be
00000020: 5973 9c3e 75ec 12be ccd9 d53d 03cb 99bc
00000030: b049 dc3d 6ffd 173e 093a ea3d 2f0c b33d
00000040: 9c2d d2bd 380c a6be c74b 803e 516c 643b
00000050: bb04 abbe 84ac 0c3e 0ad2 a63e 750c 0a3e
00000060: a1a9 053f c858 5ebe 5e3a 96bd 26b8 043f
00000070: c518 ca3d ebd9 84be b9e1 333e 809e 46bd
00000080: 6346 10be 1460 0d3e 7eb9 99be 2ad8 39be
00000090: 59c1 6abe 7e8d 7ebe 044b 533c d155 5a3e
000000a0: e32d e53c f9ad f8bc 1907 98be b06b 273e
000000b0: a65d dfbd 686d 02be 49d2 8ebe da07 573e
000000c0: ee9a 193d b9f9 0c3e a8fe b7bd 5020 aa3e
000000d0: 4ec1 0fbc 9f3a 843e bb0d 263f fa9b b2be
000000e0: 64bb ca3e 41f8 19be 93a5 d2bd 9400 833e
000000f0: b706 b7be 9009 753b f1e0 12bf dbad 01be

bias f4 [8]
-0.34451917 0.41395873 0.18986459 -0.036658823 -0.27507338 -0.35082453 -0.4098913 0.6293598
00000000: d164 b0be 66f2 d33e dd6b 423e 9027 16bd
00000010: 6bd6 8cbe 469f b3be 46dd d1be b91d 213f

weight f4 [8, 8]
-0.21254061 -0.23737499 -0.3522758 0.05987008 -0.20304215 -0.26811013 0.02824664 -0.3727746
0.10244255 0.08538197 0.29768884 -0.2534761 -0.2550921 -0.03659691 -0.16146015 -0.2345556
0.33142498 0.45021752 -0.34996444 0.1832198 0.22113949 0.16656995 -0.60469574 1.441584
-0.13065986 0.13044114 0.33882722 0.5536694 0.12635511 0.3160361 0.3960439 1.347238
0.087163754 0.3404289 -0.24136594 0.29606685 -0.33107543 0.20308977 -0.41006738 0.69845736
-0.23933588 0.2730776 0.0866355 0.31974927 -0.18056573 -0.29273254 -0.45931804 1.1237462
-0.137575 0.44772127 0.20381625 0.40435985 0.113556676 0.2780218 0.23523632 1.2297255
-0.2720773 0.43218073 -0.24309686 0.3604029 0.16957603 0.1108696 -0.6360458 1.1309866
00000000: 3fa4 59be 6e12 73be 7e5d b4be 543a 753d
00000010: 48ea 4fbe bb45 89be 7f65 e73c 50dc bebe
00000020: 66cd d13d bedc ae3d ac6a 983e 9fc7 81be
00000030: 6f9b 82be a4e6 15bd cf55 25be 582f 70be
00000040: 89b0 a93e e982 e63e 8a2e b3be f99d 3b3e
00000050: 6472 623e 5091 2a3e 57cd 1abf d385 b83f
00000060: b3cb 05be 5d92 053e c37a ad3e 47bd 0d3f
00000070: 3c63 013e 7ccf a13e 44c6 ca3e 4b72 ac3f
00000080: e982 b23d b24c ae3e a228 77be 1396 973e
00000090: b882 a9be c4f6 4f3e 5af4 d1be 1ace 323f
000000a0: 7714 75be d4d0 8b3e f46d b13d 2db6 a33e
000000b0: 39e6 38be 0ae1 95be bc2b ebbe ead6 8f3f
000000c0: 76e0 0cbe b93b e53e 35b5 503e 4108 cf3e
000000d0: 6790 e83d e058 8e3e cae1 703e a567 9d3f
000000e0: b74d 8bbe cb46 dd3e 62ee 78be bb86 b83e
000000f0: 57a5 2d3e 9a0f e33d e6d3 22bf 2bc4 903f

bias f4 [8]
-0.0733065 -0.12640923 0.43539155 0.27171522 0.25570238 -0.30517828 0.2939313 0.14862506
00000000: b821 96bd 6c71 01be a4eb de3e 421e 8b3e
00000010: 6ceb 823e 5440 9cbe 2a7e 963e 2b31 183e

weight f4 [8, 8]
-0.22720523 0.00923193 -0.030563947 0.1039853 -0.43146628 -0.3392901 0.04685539 -0.3249974
-0.0048790458 -0.30987322 -0.09449593 -0.1394496 0.29866627 0.16486056 -0.32239476 -0.17746681
0.21050172 0.14980832 -0.18155265 0.44546863 -0.04448241 -0.3360924 0.052575324 -0.27702096
0.07454508 -0.0139515335 0.16005053 0.30177474 0.23028181 0.5772455 -0.010543449 0.62614447
-0.24478227 0.08031436 -0.21896231 -0.311529 -0.3040046 0.117874324 -0.11353172 -0.06541372
-0.19109012 -0.004191504 0.0926772 0.36877602 0.6039605 0.41769615 0.48498765 0.1744018
-0.34153432 0.12713188 -0.5117216 0.3519348 -0.09138594 0.0314958 0.35573292 -0.57284075
0.10758842 0.012077938 0.037476957 0.33395892 -0.44886923 -0.07258586 0.30282775 -0.42104995
00000000: 7da8 68be 8541 173c 3e61 fabc 3ff6 d43d
00000010: 26e9 dcbe 6fb7 adbe 70eb 3f3d 0f66 a6be
00000020: 67e0 9fbb b4a7 9ebe 1587 c1bd e0cb 0ebe
00000030: c9ea 983e 35d1 283e ed10 a5be dcb9 35be
00000040: c38d 573e 5a67 193e f0e8 39be 7714 e43e
00000050: 3033 36bd 4e14 acbe 3959 573d b1d5 8dbe
00000060: 17ab 983d f994 64bc 49e4 233e 3882 9a3e
00000070: ffce 6b3e 5cc6 133f 6ebe 2cbc 014b 203f
00000080: 34a8 7abe db7b a43d a837 60be bb80 9fbe
00000090: 7ea6 9bbe 1868 f13d 5283 e8bd a1f7 85bd
000000a0: 21ad 43be e258 89bb 8bcd bd3d 36d0 bc3e
000000b0: 289d 1a3f 45dc d53e 4d50 f83e 6396 323e
000000c0: 96dd aebe dc2e 023e 3000 03bf cc30 b43e
000000d0: 8d28 bbbd bd01 013d a022 b63e b1a5 12bf
000000e0: 5157 dc3d 8be2 453c 7081 193d aafc aa3e
000000f0: 30d2 e5be e5a7 94bd 3d0c 9b3e dc93 d7be

bias f4 [8]
-0.43050417 0.32514653 0.12438677 -0.15056396 -0.21139586 0.12247141 -0.010059182 -0.5546501
00000000: 0b6b dcbe 9b79 a63e 7ebe fe3d 702d 1abe
00000010: 2878 58be 4ad2 fa3d 44cf 24bc 8dfd 0dbf

weight f4 [8, 8]
0.2835894 -0.10313013 0.224398 -0.19908923 -0.0065308646 -0.34654495 0.4907978 0.5604651
0.007195156 0.108605474 0.54544705 0.024359105 0.24197057 -0.067022 0.60060084 0.45744202
0.0041080955 0.26942068 0.07399056 0.20910172 -0.18178509 -0.28489357 -0.264702 0.21979417
0.28806624 0.30860057 -0.30007684 0.094142824 0.12972867 -0.24924773 0.29984418 -0.09064982
0.25786483 0.070520446 -0.19162522 0.6448914 0.16168533 0.50638187 -0.80325663 -0.18195961
0.10826121 -0.007912692 -0.23766644 0.59796995 0.32830387 0.4617364 -0.4305241 -0.07638836
-0.15647295 0.31448913 0.22654402 -0.070439816 -0.2460621 -0.16209745 -0.21424536 -0.15882984
0.070977606 -0.11407828 -0.25439397 0.350463 0.13158688 0.52230877 -0.35268953 -0.30617824
00000000: a132 913e e435 d3bd 97c8 653e 0cde 4bbe
00000010: dd00 d6bb 576e b1be d949 fb3e a47a 0f3f
00000020: 58c5 eb3b 8c6c de3d 6ba2 0b3f bf8c c73c
00000030: 22c7 773e d542 89bd fac0 193f d735 ea3e
00000040: 349d 863b 82f1 893e 5d88 973d c31e 563e
00000050: df25 3abe 92dd 91be 0587 87be b911 613e
00000060: 6b7d 933e e500 9e3e aca3 99be f4cd c03d
00000070: 98d7 043e cc3a 7fbe 2d85 993e 9da6 b9bd
00000080: dc06 843e 066d 903d 6739 44be 9a17 253f
00000090: d790 253e 3ea2 013f 3aa2 4dbf 9f53 3abe
000000a0: 0eb8 dd3d 3ca4 01bc d55e 73be 8f14 193f
000000b0: 7217 a83e b768 ec3e a86d dcbe 8071 9cbd
000000c0: 723a 20be b804 a13e 28fb 673e c042 90bd
000000d0: b4f7 7bbe e0fc 25be 2363 5bbe 4aa4 22be
000000e0: b55c 913d e0a1 e9bd ed3f 82be e36f b33e
000000f0: b6be 063e 07b6 053f b993 b4be 65c3 9cbe

bias f4 [8]
-2.8256328 0.78009427 0.21893775 -0.25057122 -0.8525966 -1.9490165 0.27929008 -0.66411555
00000000: 2bd7 34c0 42b4 473f 3831 603e df4a 80be
00000010: c543 5abf 5f79 f9bf 1cff 8e3e 7a03 2abf

weight f4 [8, 8]
-2.422497 -0.26639104 0.052040566 -0.050748304 0.5845311 0.6366237 -0.16246907 0.5400159
0.07025597 -0.22116753 0.03699721 -0.18107955 -0.048003726 -0.04135202 -0.24856214 -0.15826699
-0.041937336 0.024809606 0.22311594 0.107812814 -0.19736642 -0.108363375 -0.119747035 -0.21898876
-5.50554 -0.68565565 -0.24206898 -0.28086162 0.49847063 0.65704876 0.26002455 0.43765655
2.4253492 0.6076734 -0.020584168 0.27964687 -0.6931533 0.093134426 -0.21173358 -0.4057219
-2.5847433 -0.31078327 0.11278137 -0.08310646 0.17713054 0.5390267 -0.2450887 0.5509112
0.2758579 -0.0732527 -0.32562175 0.1754808 -0.17596456 -0.30421263 0.020396039 -0.036193945
-4.8847265 -0.37403014 -0.07162064 0.16919544 0.7456385 0.27789715 0.21326575 0.09823557
00000000: 310a 1bc0 6864 88be 7d28 553d 74dd 4fbd
00000010: d5a3 153f c5f9 223f 4b5e 26be 7b3e 0a3f
00000020: 5de2 8f3d be79 62be 638a 173d eb6c 39be
00000030: 8e9f 44bd bc60 29bd 1387 7ebe be10 22be
00000040: 7cc6 2bbd 843d cb3c 8178 643e f7cc dc3d
00000050: 6c1a 4abe 9eed ddbd ef3d f5bd 973e 60be
00000060: 622d b0c0 2187 2fbf eee0 77be 18cd 8fbe
00000070: 8b37 ff3e 5934 283f f021 853e 8514 e03e
00000080: ec38 1b40 7c90 1b3f 21a0 a8bc e02d 8f3e
00000090: 7f72 31bf 43bd be3d b0d0 58be c8ba cfbe
000000a0: 6f6c 25c0 fc1e 9fbe ebf9 e63d b833 aabd
000000b0: b561 353e a7fd 093f 88f8 7abe 8408 0d3f
000000c0: 3f3d 8d3e 8305 96bd e5b7 a6be 3db1 333e
000000d0: 0e30 34be c2c1 9bbe 9815 a73c 1a40 14bd
000000e0: ae4f 9cc0 e180 bfbe d8ad 92bd 9241 2d3e
000000f0: 2ae2 3e3f 8948 8e3e 5662 5a3e bb2f c93d

bias f4 [8]
-0.7105178 0.15474288 0.2636179 -1.7603511 -1.8539777 -0.8127684 -0.117419556 -1.4442956
00000000: 7fe4 35bf eb74 1e3e edf8 863e 2f53 e1bf
00000010: 244f edbf 9711 50bf aa79 f0bd aede b8bf

weight f4 [1, 8]
0.7024183 -0.14619477 -0.08863196 3.085873 -1.4854697 0.9801059 -0.14523041 2.935147
00000000: b0d1 333f 15b4 15be ac84 b5bd f17e 4540
00000010: df23 bebf 38e8 7a3f 48b7 14be 73d9 3b40
