output/model_20221121_3881.pth (torch, 4343 bytes, 7 tensors)

weight f4 [8, 3]
0.7235024 3.0561998 -0.64722204 -0.13235463 -0.5695143 0.22900376 -0.11782708 0.005960152
-0.40395525 0.20866413 -4.1385403 0.6379322 0.32063216 -0.91398 1.8805028 -0.16605546
-0.24206388 0.078281656 -0.059672683 0.36182317 0.36764643 0.46629357 3.7334776 -1.0545114
00000000: 7437 393f c798 4340 58b0 25bf f987 07be
00000010: b0cb 11bf f67f 6a3e 534f f1bd 614d c33b
00000020: 39d3 cebe 0dac 553e ec6e 84c0 864f 233f
00000030: e629 a43e 98fa 69bf 51b4 f03f 710a 2abe
00000040: 98df 77be 2252 a03d 586b 74bd e340 b93e
00000050: 273c bc3e 08be ee3e 4cf1 6e40 3bfa 86bf

bias f4 [8]
0.8417066 0.2082013 -0.2789125 -1.4763311 -1.3416084 0.07002088 -0.52896124 0.18793933
00000000: 157a 573f b932 553e 9fcd 8ebe 6bf8 bcbf
00000010: d3b9 abbf 1b67 8f3d 016a 07bf 2b73 403e

weight f4 [8, 8]
0.11739142 -0.25997943 0.24263088 -0.99100536 -0.2709702 -0.18822487 0.20839138 0.5283315
0.122061275 -0.2946863 0.3039272 -0.85221124 -0.18808843 -0.33326596 -0.01627547 0.17986605
0.06815878 0.030764755 -0.01081585 -0.49930415 0.43546888 0.016959216 0.16053419 0.46389517
0.6041688 -0.15138756 0.23754773 -1.5045747 -0.7480672 0.158628 0.24275889 0.14549255
0.22715454 0.10406344 0.34022486 0.7963936 0.39784193 0.30314213 0.26829043 -0.23273456
0.039855514 0.18306108 -0.14072782 0.57621706 0.31197488 0.008102226 0.008886283 0.35572737
0.6565493 0.27190807 -0.17063935 -0.3804589 -0.64949477 -0.054362018 -0.06009913 0.36746147
0.56307095 -0.064703755 -0.30703118 -0.5267477 -0.86818796 0.076331735 -0.17110604 0.47505
00000000: ea6a f03d 061c 85be 3b74 783e 87b2 7dbf
00000010: 9bbc 8abe 05be 40be 8d64 553e bc40 073f
00000020: 43fb f93d 1fe1 96be 599c 9b3e 842a 5abf
00000030: 419a 40be d6a1 aabe 2254 85bc ce2e 383e
00000040: d596 8b3d 5e06 fc3c f734 31bc cba4 ffbe
00000050: c7f5 de3e 0eee 8a3c 1363 243e ab83 ed3e
00000060: ceaa 1a3f 5705 1bbe b63f 733e e795 c0bf
00000070: 5581 3fbf 616f 223e c995 783e 00fc 143e
00000080: 339b 683e 361f d53d f431 ae3e 73e0 4b3f
00000090: f0b1 cb3e 7235 9b3e 5d5d 893e f851 6ebe
000000a0: 893f 233d 5d74 3b3e f41a 10be f682 133f
000000b0: 2cbb 9f3e 33bf 043c c697 113c e621 b63e
000000c0: 9d13 283f 8937 8b3e 15bc 2ebe 82cb c2be
000000d0: 4a45 26bf b5aa 5ebd 812a 76bd e923 bc3e
000000e0: 6b25 103f 6783 84bd 3133 9dbe f0d8 06bf
000000f0: 9141 5ebf d053 9c3d 6c36 2fbe c139 f33e

bias f4 [8]
-1.6273131 2.4959037 -3.2052007 -1.1587944 -0.7704978 -3.0731833 1.6866971 1.4709991
00000000: cc4b d0bf e3bc 1f40 0222 4dc0 6053 94bf
00000010: 583f 45bf 09af 44c0 b1e5 d73f b349 bc3f

weight f4 [8, 8]
0.34212083 1.1391087 -0.05292947 3.136661 -1.1855503 -0.099012114 0.7662052 0.9928035
0.540762 1.1260412 0.20528501 1.370331 -0.40215284 -0.063215986 0.3875556 0.4973155
0.5078583 1.150045 0.09027094 2.2873282 -0.76714325 0.15547027 0.105176575 0.3642047
-0.4766508 -1.0060034 -0.1940812 -1.8583598 0.43968296 0.57478213 -0.4889526 -0.17019187
-0.24852669 -0.12650259 -0.1480381 -0.24024521 0.33591047 -0.0032204827 -0.34480038 0.083621874
0.40230048 -1.4462678 0.40073934 4.3029037 0.3099693 0.37774616 -0.095867515 -0.5817633
-1.8325578 0.89088476 -1.2554933 -2.2929661 0.64110166 -0.6445439 0.5598674 0.5380324
1.0494323 -6.6591983 0.8220999 5.2119775 0.2830822 0.6111474 -0.60619783 -0.77192026
00000000: 762a af3e 50ce 913f 92cc 58bd 0ebf 4840
00000010: 1dc0 97bf ddc6 cabd 0626 443f 5f28 7e3f
00000020: 616f 0a3f 1e22 903f 3c36 523e 0267 af3f
00000030: fae6 cdbe 6277 81bd b06d c63e 23a0 fe3e
00000040: 0003 023f ad34 933f f8df b83d 9663 1240
00000050: 8063 44bf 9933 1f3e d166 d73d 0a79 ba3e
00000060: 930b f4be b8c4 80bf 39bd 46be bcde edbf
00000070: 201e e13e ec24 133f ff57 fabe c746 2ebe
00000080: c87d 7ebe e589 01be 4d97 17be d702 76be
00000090: 75fc ab3e bc0e 53bb ad89 b0be f241 ab3d
000000a0: 54fa cd3e 4e1f b9bf b52d cd3e 63b1 8940
000000b0: 4cb4 9e3e f267 c13e 3056 c4bd 71ee 14bf
000000c0: 4191 eabf 0611 643f 01b4 a0bf f5bf 12c0
000000d0: 3d1f 243f d400 25bf 7853 0f3f 7ebc 093f
000000e0: cc53 863f 2718 d5c0 2475 523f 85c8 a640
000000f0: 26f0 903e 2874 1c3f c82f 1bbf 919c 45bf

bias f4 [8]
-0.14766039 0.10886307 0.064336345 -0.68975043 0.0050840057 -2.2296526 1.8069669 -2.7442214
00000000: 4934 17be 9af3 de3d c6c2 833d 7c93 30bf
00000010: bb97 a63b a1b2 0ec0 b14a e73f 53a1 2fc0

weight f4 [1, 8]
1.1247185 0.69522667 0.9382178 3.6022866 0.2828485 -1.6751039 -3.2600913 -2.5408697
00000000: c7f6 8f3f 60fa 313f 0b2f 703f dd8b 6640
00000010: 85d1 903e ce69 d6bf 56a5 50c0 9c9d 22c0
